Model: "sequential"
+--------------------------------------------------------------------------------------+
| Layer (type)                         | Output Shape                |         Param # |
|--------------------------------------+-----------------------------+-----------------|
| dense (Dense)                        | (None, 1024)                |          92,160 |
|--------------------------------------+-----------------------------+-----------------|
| dense_1 (Dense)                      | (None, 512)                 |         524,800 |
|--------------------------------------+-----------------------------+-----------------|
| dense_2 (Dense)                      | (None, 256)                 |         131,328 |
|--------------------------------------+-----------------------------+-----------------|
| dense_3 (Dense)                      | (None, 128)                 |          32,896 |
|--------------------------------------+-----------------------------+-----------------|
| dense_4 (Dense)                      | (None, 64)                  |           8,256 |
|--------------------------------------+-----------------------------+-----------------|
| dense_5 (Dense)                      | (None, 32)                  |           2,080 |
|--------------------------------------+-----------------------------+-----------------|
| dense_6 (Dense)                      | (None, 16)                  |             528 |
|--------------------------------------+-----------------------------+-----------------|
| dense_7 (Dense)                      | (None, 8)                   |             136 |
|--------------------------------------+-----------------------------+-----------------|
| dense_8 (Dense)                      | (None, 5)                   |              45 |
+--------------------------------------------------------------------------------------+
 Total params: 2,376,689 (9.07 MB)
 Trainable params: 792,229 (3.02 MB)
 Non-trainable params: 0 (0.00 B)
 Optimizer params: 1,584,460 (6.04 MB)


Model Training Information:
Input features: 89
Output features: 5
Model saved at: model\torcs_model.h5
